> php neural-machine-translation-with-transformer.php
Generating data...
num_examples: 20000
num_words: 1024
epoch: 10
batchSize: 64
embedding_dim: 128
num_heads: 8
dff: 512
Total questions: 20000
Input  word dictionary: 1024(6814)
Target word dictionary: 1024(3294)
Input length: 15
Output length: 9
device type: GPU
Compile model...
Layer(type)                  Output Shape               Param #
==================================================================
embedding.posemb.encoder.tran(15,128)                   131072
mask.posemb.encoder.transform(15,128)                   0
mha.globalattn.enc_layer0.enc(15,128)                   527488
layernorm.globalattn.enc_laye(15,128)                   256
add.globalattn.enc_layer0.enc(15,128)                   0
ff1.ffn.enc_layer0.encoder.tr(15,512)                   66048
ff2.ffn.enc_layer0.encoder.tr(15,128)                   65664
dropout.ffn.enc_layer0.encode(15,128)                   0
add.ffn.enc_layer0.encoder.tr(15,128)                   0
layernorm.ffn.enc_layer0.enco(15,128)                   256
mha.globalattn.enc_layer1.enc(15,128)                   527488
layernorm.globalattn.enc_laye(15,128)                   256
add.globalattn.enc_layer1.enc(15,128)                   0
ff1.ffn.enc_layer1.encoder.tr(15,512)                   66048
ff2.ffn.enc_layer1.encoder.tr(15,128)                   65664
dropout.ffn.enc_layer1.encode(15,128)                   0
add.ffn.enc_layer1.encoder.tr(15,128)                   0
layernorm.ffn.enc_layer1.enco(15,128)                   256
mha.globalattn.enc_layer2.enc(15,128)                   527488
layernorm.globalattn.enc_laye(15,128)                   256
add.globalattn.enc_layer2.enc(15,128)                   0
ff1.ffn.enc_layer2.encoder.tr(15,512)                   66048
ff2.ffn.enc_layer2.encoder.tr(15,128)                   65664
dropout.ffn.enc_layer2.encode(15,128)                   0
add.ffn.enc_layer2.encoder.tr(15,128)                   0
layernorm.ffn.enc_layer2.enco(15,128)                   256
mha.globalattn.enc_layer3.enc(15,128)                   527488
layernorm.globalattn.enc_laye(15,128)                   256
add.globalattn.enc_layer3.enc(15,128)                   0
ff1.ffn.enc_layer3.encoder.tr(15,512)                   66048
ff2.ffn.enc_layer3.encoder.tr(15,128)                   65664
dropout.ffn.enc_layer3.encode(15,128)                   0
add.ffn.enc_layer3.encoder.tr(15,128)                   0
layernorm.ffn.enc_layer3.enco(15,128)                   256
dropout.encoder.transformer(D(15,128)                   0
embedding.posemb.decoder.tran(9,128)                    131072
mask.posemb.decoder.transform(9,128)                    0
dropout.decoder.transformer(D(9,128)                    0
mha.causalatten.dec_layer0.de(9,128)                    527488
layernorm.causalatten.dec_lay(9,128)                    256
add.causalatten.dec_layer0.de(9,128)                    0
mha.crossAttn.dec_layer0.deco(9,128)                    527488
layernorm.crossAttn.dec_layer(9,128)                    256
add.crossAttn.dec_layer0.deco(9,128)                    0
ff1.ffn.dec_layer0.decoder.tr(9,512)                    66048
ff2.ffn.dec_layer0.decoder.tr(9,128)                    65664
dropout.ffn.dec_layer0.decode(9,128)                    0
add.ffn.dec_layer0.decoder.tr(9,128)                    0
layernorm.ffn.dec_layer0.deco(9,128)                    256
mha.causalatten.dec_layer1.de(9,128)                    527488
layernorm.causalatten.dec_lay(9,128)                    256
add.causalatten.dec_layer1.de(9,128)                    0
mha.crossAttn.dec_layer1.deco(9,128)                    527488
layernorm.crossAttn.dec_layer(9,128)                    256
add.crossAttn.dec_layer1.deco(9,128)                    0
ff1.ffn.dec_layer1.decoder.tr(9,512)                    66048
ff2.ffn.dec_layer1.decoder.tr(9,128)                    65664
dropout.ffn.dec_layer1.decode(9,128)                    0
add.ffn.dec_layer1.decoder.tr(9,128)                    0
layernorm.ffn.dec_layer1.deco(9,128)                    256
mha.causalatten.dec_layer2.de(9,128)                    527488
layernorm.causalatten.dec_lay(9,128)                    256
add.causalatten.dec_layer2.de(9,128)                    0
mha.crossAttn.dec_layer2.deco(9,128)                    527488
layernorm.crossAttn.dec_layer(9,128)                    256
add.crossAttn.dec_layer2.deco(9,128)                    0
ff1.ffn.dec_layer2.decoder.tr(9,512)                    66048
ff2.ffn.dec_layer2.decoder.tr(9,128)                    65664
dropout.ffn.dec_layer2.decode(9,128)                    0
add.ffn.dec_layer2.decoder.tr(9,128)                    0
layernorm.ffn.dec_layer2.deco(9,128)                    256
mha.causalatten.dec_layer3.de(9,128)                    527488
layernorm.causalatten.dec_lay(9,128)                    256
add.causalatten.dec_layer3.de(9,128)                    0
mha.crossAttn.dec_layer3.deco(9,128)                    527488
layernorm.crossAttn.dec_layer(9,128)                    256
add.crossAttn.dec_layer3.deco(9,128)                    0
ff1.ffn.dec_layer3.decoder.tr(9,512)                    66048
ff2.ffn.dec_layer3.decoder.tr(9,128)                    65664
dropout.ffn.dec_layer3.decode(9,128)                    0
add.ffn.dec_layer3.decoder.tr(9,128)                    0
layernorm.ffn.dec_layer3.deco(9,128)                    256
final_layer.transformer(Dense(9,1024)                   132096
==================================================================
Total params: 7782912
Train model...
Train on 19800 samples
Epoch 1/10 [.........................] 785 sec. remaining:00:00  - 785 sec.
 loss:4.7450 accuracy:0.3357
Epoch 2/10 [.........................] 777 sec. remaining:00:00  - 777 sec.
 loss:2.7992 accuracy:0.5753
Epoch 3/10 [.........................] 775 sec. remaining:00:00  - 775 sec.
…
